eidetic_ai/qce/models/trained_policy.pth (torch, 236213 bytes, 9 tensors)

net.0.weight f4 [128, 384]
0.04375883 -0.0056836107 0.0043175602 0.0037111861 0.057226203 -0.016223516 0.022187456 -0.028048348
0.047662064 -0.017254416 -0.03380054 -0.039334267 -0.029928073 -0.018969027 0.0172387 -0.004742281
-0.023350783 -0.017195147 -0.037387494 0.037435513 -0.048772972 0.028958865 0.019370524 -0.039833885
0.033973984 -0.05299706 -0.017544925 0.034158953 -0.035008755 0.05426042 -0.017603116 0.011801503
-0.012024748 0.049533736 -0.008141558 -0.048653718 -0.021167053 0.047535658 0.02045329 -0.040539317
-0.02119825 0.03130106 -0.025378814 0.018713601 0.009336425 -0.039304424 0.03456547 -0.037124734
0.026204843 -0.042226426 -0.0049264105 -0.042091697 0.0177841 -0.0064756298 0.038442798 -0.012570831
-0.029556153 -0.032407593 -0.023304986 -0.027758846 -0.012819218 -0.020756582 0.04153464 -0.01435813
-0.0011283988 -0.014416474 -0.0029302493 -0.042335995 -0.033523023 -0.045904934 0.00720118 -0.016049478
-0.006471173 0.06416253 -0.060830142 0.027363759 -0.05127661 -0.032442003 -0.052733604 -0.050487246
0.041841518 0.0063054715 -0.030876786 -0.029314723 -0.041279107 0.028538505 0.017838372 0.039797533
0.026871754 -0.04910922 -0.039861504 0.02894797 0.016824033 0.047404375 -0.028166441 -0.037142143
-0.0070292763 0.050681576 -0.024831066 0.019631844 0.008418031 -0.057500105 -0.040649068 -0.00074235135
0.021223553 0.05061613 -0.021281715 0.035841927 -0.02856648 0.02882089 -0.03611466 0.011777679
0.0031124842 0.021584436 0.021847725 -0.016367055 -0.054246187 -0.059181064 -0.012548783 -0.0022862412
-0.02773873 0.031154046 0.046626497 -0.040504955 0.047548052 0.017562771 -0.008880074 -0.02191098
0.047824327 -0.006684025 0.006757526 -0.044963926 -0.016545326 0.03683268 0.03379147 0.0112518
-0.018475622 -0.004013569 -0.04201685 0.012085634 0.054807592 -0.008732784 0.036347765 0.012431303
-0.009261091 -0.011113587 -0.033773884 -0.041008826 0.009557994 -0.04394684 0.026154526 0.039239634
-0.007953287 -0.044736035 -0.012445995 -0.022485953 0.02059493 0.0052940818 0.016000973 0.011285614
-0.02877896 0.040960085 -0.039721094 0.046114713 -0.025677733 -0.026257936 -0.03640428 -0.03792661
0.012178688 0.0022462914 0.03534059 -0.03635708 0.005000842 -0.009972626 -0.04273605 0.028168295
-0.011525956 0.018972125 -0.036991384 -0.028209403 0.04185593 -0.016678551 -0.006772215 0.0229842
-0.0045106444 -0.011320754 -0.022671558 -0.036645483 0.023671145 -0.02588645 -0.021462748 -0.06018309
0.015356247 0.003910863 -0.016622266 -0.01796782 -0.009745386 -0.024438856 0.027895672 0.049658872
-0.053971138 0.035284035 0.053207014 0.032314923 0.06335284 -0.029155197 0.0070614675 -0.0325901
0.0508169 -0.008016133 0.017054385 -0.028975852 -0.046723604 0.03494782 -0.029041084 0.006525769
0.0338194 0.0091806725 0.01037712 0.009746202 0.02124815 -0.018755717 -0.022765221 0.00021361768
-0.014737344 -0.0019265546 0.048418276 0.00693753 -0.057068925 -0.018108483 0.031744 0.052745856
-0.016714117 -0.042420026 -0.037759766 -0.012350154 -0.054443657 0.0047133574 -0.03504807 0.012150413
-0.02859447 0.03061622 -0.0125818 -0.02171029 0.022397947 0.022947576 0.058635116 0.023985067
-0.040920198 -0.02286942 0.014900783 -0.018446099 0.0018979461 -0.003424012 0.00353702 -0.016822884
00000000: 753c 333d 953d babb 527a 8d3b 5f37 733b
00000010: 0666 6a3d 2ee7 84bc 78c2 b53c a6c5 e5bc
00000020: 4c39 433d 2259 8dbc 6f72 0abd f81c 21bd
00000030: b82b f5bc ef64 9bbc 2d38 8d3c 2365 9bbb
00000040: 244a bfbc d6dc 8cbc a123 19bd fb55 193d
00000050: 2bc6 47bd 243b ed3c efae 9e3c db28 23bd
00000060: 4e28 0b3d 7213 59bd 60ba 8fbc 42ea 0b3d
00000070: 5765 0fbd 2d40 5e3d 6934 90bc 175b 413c
00000080: 7303 45bc e3e3 4a3d 2b64 05bc 1f49 47bd
00000090: 8766 adbc c0b4 423d a88d a73c 8e0c 26bd
000000a0: f4a7 adbc 8a35 003d 3be7 cfbc 444d 993c
000000b0: cef7 183c adfd 20bd 8694 0d3d 1b10 18bd
000000c0: 8aab d63c 9ef5 2cbd ba6d a1bb 5868 2cbd
000000d0: f6af 913c 8531 d4bb 3276 1d3d e3f5 4dbc
000000e0: bf1f f2bc d3bd 04bd 19ea bebc 8566 e3bc
000000f0: b307 52bc b509 aabc 3a20 2a3d 5d3e 6bbc
00000100: c8e6 93ba 1333 6cbc 6d09 40bb 8268 2dbd
00000110: 704f 09bd d006 3cbd e0f7 eb3b 327a 83bc
00000120: 220c d4bb a567 833d 0729 79bd f629 e03c
00000130: 6c07 52bd e8e1 04bd 31ff 57bd b7cb 4ebd
00000140: 0362 2b3d 219e ce3b 50f1 fcbc 6e25 f0bc
00000150: 4814 29bd 95c9 e93c c721 923c bd02 233d
00000160: 2722 dc3c c026 49bd d145 23bd 4b24 ed3c
00000170: 8ed2 893c 172b 423d 4fbd e6bc 5c22 18bd
00000180: d855 e6bb 7c97 4f3d 856a cbbc f6d2 a03c
00000190: c8eb 093c 3b85 6bbd a37f 26bd 5b9a 42ba
000001a0: 04dd ad3c dc52 4f3d fe56 aebc fcce 123d
000001b0: 4004 eabc c919 ec3c f7ec 13bd 2bf7 403c
000001c0: d2fa 4b3b d8d1 b03c 00fa b23c 3414 86bc
000001d0: 4031 5ebd d867 72bd 6999 4dbc c3d4 15bb
000001e0: 553c e3bc c536 ff3c 6dfb 3e3d 86e8 25bd
000001f0: bfc1 423d cddf 8f3c bb7d 11bc a87e b3bc
00000200: 71e3 433d aa05 dbbb 3d6e dd3b 182c 38bd
00000210: 108a 87bc dddd 163d ed68 0a3d 7859 383c
00000220: 305a 97bc 4284 83bb dc19 2cbd d302 463c
00000230: ed7d 603d f313 0fbc 65e1 143d aaac 4b3c
00000240: d5bb 17bc c315 36bc 7c56 0abd dff8 27bd
00000250: 2299 1c3c 9a01 34bd 0442 d63c bdb9 203d
00000260: 814e 02bc 223d 37bd 49ea 4bbc 7634 b8bc
00000270: b3b6 a83c fa79 ad3b 7914 833c 4ce7 383c
00000280: dbc1 ebbc c3c5 273d 96b2 22bd c8e2 3c3d
00000290: 1c5a d2bc e21a d7bc a81c 15bd ef58 1bbd
000002a0: 1f89 473c 8436 133b 4bc1 103d 29eb 14bd
000002b0: 1ade a33b 3a64 23bc ff0b 2fbd 32c1 e63c
000002c0: 5dd7 3cbc 6e6b 9b3c 4784 17bd 6817 e7bc
000002d0: 2071 2b3d 75a1 88bc 75e9 ddbb 5c49 bc3c
000002e0: 07ce 93bb af7a 39bc b4b9 b9bc 9319 16bd
000002f0: fde9 c13c d20f d4bc a5d2 afbc 8b82 76bd
00000300: c598 7b3c b226 803b 6b2b 88bc 4031 93bc
00000310: 1dab 1fbc ff33 c8bc 7785 e43c 1a67 4b3d
00000320: d710 5dbd fe85 103d 99ef 593d a75c 043d
00000330: 22bf 813d e1d6 eebc e263 e73b 327d 05bd
00000340: 6225 503d 1956 03bc a3b5 8b3c c45e edbc
00000350: 4061 3fbd 7225 0f3d 91e7 edbc 1ed6 d53b
00000360: 3686 0a3d 886a 163c cc04 2a3c 89ae 1f3c
00000370: 9a10 ae3c 97a5 99bc 217e babc 8ffe 5f39
00000380: e774 71bc 7284 fcba 3e52 463d 3854 e33b
00000390: 1bc1 69bd 3e58 94bc ff05 023d 0a0c 583d
000003a0: 0bec 88bc 9fc0 2dbd fca9 1abd 4d58 4abc
000003b0: 5000 5fbd 8272 9a3b 918e 0fbd 8712 473c
000003c0: f33e eabc dece fa3c e523 4ebc c7d9 b1bc
000003d0: e67b b73c 8efc bb3c 602b 703d 557c c43c
000003e0: f09b 27bd a658 bbbc 6a22 743c 461c 97bc
000003f0: 81c4 f83a 6465 60bb 59cd 673b 25d0 89bc

net.0.bias f4 [128]
0.012264224 0.022548141 -0.007988581 0.014209278 0.02728907 0.0018700083 -0.030142875 0.039647024
0.04179401 0.039721787 -0.026961507 -0.045171898 -0.028160283 -0.00568433 -0.040040195 0.013507578
0.04394026 0.032004762 0.0043239295 0.021537727 -0.041817237 -0.003628176 -0.023391152 -0.023055391
0.004260509 -0.0053009926 0.008138702 -0.041893702 -0.017289422 -0.051612046 0.040946994 0.02703362
0.0121408785 -0.007351095 0.038145453 -0.004766392 0.030115716 -0.03138844 -0.015361321 0.027821548
0.00044982857 0.002666893 0.048937704 0.00014546597 -0.0389925 0.02596924 0.039942697 0.0303768
-0.037388653 0.0057791094 -0.03150594 -0.018084742 0.035708822 -0.043492485 0.025416195 0.02568055
0.012815599 -0.026106378 0.016650416 0.042905483 0.004991491 -0.0030806295 -0.019059245 0.00023115883
-0.051164046 0.04379517 0.0030156255 0.021681296 0.026837714 -0.011484567 -0.04292724 0.0014139516
-0.048694756 0.03376602 -0.019302374 -0.002557315 0.0055913455 0.0076948125 0.028586797 0.01994813
-0.01006057 0.035147246 -0.022892559 -0.008453955 -0.01266545 -0.035672236 0.017808279 0.051284585
-0.022901729 -0.023676783 -0.044777103 -0.045471497 0.0073612854 0.024848383 -0.0096531175 0.041590195
0.023383673 0.01794631 -0.022762157 0.033726953 -0.05135804 0.025206968 -0.03930149 -0.006523233
0.029205631 0.02908303 0.030770449 -0.023776064 -0.011185901 -0.012469371 -0.03438901 -0.0033138976
0.020288847 0.03699021 0.011253861 0.042338688 0.00910807 0.018147811 0.056733888 -0.033129394
-0.041778244 0.03320136 0.040697105 -0.0019124341 -0.00521321 0.025729578 -0.012102126 -0.007353304
00000000: e2ef 483c e1b6 b83c 8ae2 02bc 08ce 683c
00000010: 548d df3c 111b f53a 31ee f6bc eb64 223d
00000020: 3230 2b3d 50b3 223d 61de dcbc 2b06 39bd
00000030: 65b0 e6bc 9e43 babb 3001 24bd e34e 5d3c
00000040: b4fa 333d 6d17 033d c0af 8d3b e36f b03c
00000050: 8d48 2bbd b1c6 6dbb cd9e bfbc a9de bcbc
00000060: bd9b 8b3b f3b3 adbb 3158 053c bb98 2bbd
00000070: 8ca2 8dbc 2767 53bd 09b8 273d 9c75 dd3c
00000080: 89ea 463c 74e1 f0bb 683e 1c3d 652f 9cbb
00000090: 3cb5 f63c 2a91 00bd 0dae 7bbc 04ea e33c
000000a0: f8d6 eb39 0ac7 2e3b e772 483d 3988 1839
000000b0: 9ab6 1fbd 72bd d43c f49a 233d c4d8 f83c
000000c0: d824 19bd af5e bd3b 5f0c 01bd 7426 94bc
000000d0: 6a43 123d 2d25 32bd a035 d03c 0460 d23c
000000e0: 85f8 513c 0bdd d5bc 7466 883c a9bd 2f3d
000000f0: a98f a33b 63e4 49bb 2222 9cbc 3a63 7239
00000100: 6491 51bd 9062 333d cda1 453b f99c b13c
00000110: c4da db3c c429 3cbc 79d4 2fbd 5854 b93a
00000120: 2774 47bd 3d4e 0a3d 0320 9ebc a098 27bb
00000130: 9b37 b73b c424 fc3b dc2e ea3c 436a a33c
00000140: 17d5 24bc 8ff6 0f3d 2d89 bbbc 7582 0abc
00000150: bf82 4fbc 0d1d 12bd abe2 913c c90f 523d
00000160: 689c bbbc d0f5 c1bc 3268 37bd 5240 3abd
00000170: f036 f13b d68e cb3c 1c28 1ebc 7b5a 2a3d
00000180: 1e8f bf3c 2404 933c b477 babc 4625 0a3d
00000190: cf5c 52bd d87e ce3c 99fa 20bd d8c0 d5bb
000001a0: a640 ef3c 893f ee3c 4f12 fc3c 05c6 c2bc
000001b0: 1245 37bc 554c 4cbc 7edb 0cbd fa2d 59bb
000001c0: cc34 a63c 0c83 173d 1d62 383c 556b 2d3d
000001d0: 043a 153c b8aa 943c cb61 683d b0b2 07bd
000001e0: aa1f 2bbd 26fe 073d 02b2 263d a4aa faba
000001f0: 93d3 aabb d6c6 d23c ff47 46bc fcf3 f0bb

net.2.weight f4 [128]
0.9935495 1.0049046 0.9850611 1.0026765 0.9927733 1.0202643 0.9968102 0.99340296
1.0074196 1.0030129 0.99310696 1.0206114 0.9950258 0.9971561 1.0025039 1.0208514
0.999626 1.0014552 1.0095669 1.0121554 0.98400414 0.98983556 0.9908201 1.0092167
1.0044721 0.9810847 1.0114883 0.9986455 0.99537385 1.0077361 1.0194429 0.9965254
1.0244482 1.0170743 0.9821673 0.9875889 1.0156615 1.0023733 1.0041144 0.99401504
1.001693 1.03024 1.0209578 0.9802931 0.99843866 1.0177416 0.9870726 0.9935625
0.99248284 0.98873496 0.9850953 0.9957454 1.0136986 1.001395 0.9964271 0.99607015
1.0041595 0.9966791 0.99171174 0.9691472 0.9946069 0.99667084 1.0100185 1.02725
0.9900645 1.0051872 1.0001183 0.9940127 1.002299 1.0104971 0.99436206 0.97630167
0.9992729 1.0123985 1.0104823 0.978337 1.0243798 1.0157111 1.0091051 1.0029218
0.9918815 1.0031127 0.9973799 0.9724377 0.9985562 1.0031095 0.9948195 1.0012035
0.9948568 1.0092986 0.9922742 0.99071187 1.0022085 0.9903977 0.99967647 1.0188574
0.9869759 1.0173229 0.9856708 0.994362 0.9933266 0.990862 0.9950076 0.9844977
1.0046782 0.987803 1.0252217 1.0151272 1.0026255 0.9996288 1.0000066 1.0190991
1.0015098 0.99449277 0.99134326 1.0041012 0.98911107 0.99879473 1.0211833 1.0162983
0.9977069 0.9921291 0.9951715 1.0249107 0.99192077 0.98075986 1.0190741 0.986074
00000000: 4359 7e3f b7a0 803f f72c 7c3f b457 803f
00000010: 6426 7e3f 0598 823f f42e 7f3f a84f 7e3f
00000020: 20f3 803f ba62 803f 423c 7e3f 65a3 823f
00000030: 03ba 7e3f 9f45 7f3f 0c52 803f 42ab 823f
00000040: 7de7 7f3f af2f 803f 7d39 813f 4f8e 813f
00000050: b2e7 7b3f dd65 7d3f 63a6 7d3f 032e 813f
00000060: 8b92 803f 5e28 7b3f 7378 813f 3ba7 7f3f
00000070: d2d0 7e3f 7ffd 803f 1b7d 823f 4a1c 7f3f
00000080: 1e21 833f 7e2f 823f 516f 7b3f a0d2 7c3f
00000090: 3201 823f c54d 803f d286 803f c577 7e3f
000000a0: 7a37 803f e8de 833f bfae 823f 7df4 7a3f
000000b0: ad99 7f3f 5b45 823f cab0 7c3f 1d5a 7e3f
000000c0: 5b13 7e3f bc1d 7d3f 352f 7c3f 2ce9 7e3f
000000d0: e0c0 813f b62d 803f d915 7f3f 74fe 7e3f
000000e0: 4c88 803f 5d26 7f3f d2e0 7d3f 081a 783f
000000f0: 8f9e 7e3f d225 7f3f 4948 813f ee7c 833f
00000100: de74 7d3f f9a9 803f e003 803f 9e77 7e3f
00000110: 554b 803f f857 813f 838e 7e3f e8ee 793f
00000120: 59d0 7f3f 4696 813f 7c57 813f 4b74 7a3f
00000130: e11e 833f d202 823f 5b2a 813f be5f 803f
00000140: f2eb 7d3f ff65 803f 4a54 7f3f adf1 783f
00000150: 61a1 7f3f e465 803f 7eac 7e3f 7027 803f
00000160: efae 7e3f b230 813f af05 7e3f 4b9f 7d3f
00000170: 5e48 803f b48a 7d3f ccea 7f3f eb69 823f
00000180: 74aa 7c3f a337 823f ec54 7c3f 828e 7e3f
00000190: a74a 7e3f 22a9 7d3f d1b8 7e3f 0b08 7c3f
000001a0: 4c99 803f a8e0 7c3f 773a 833f b0ef 813f
000001b0: 0856 803f ace7 7f3f 3700 803f d771 823f
000001c0: 7931 803f 1497 7e3f acc8 7d3f 6386 803f
000001d0: 6236 7d3f 03b1 7f3f 22b6 823f 1016 823f
000001e0: b869 7f3f 2cfc 7d3f 8fc3 7e3f 4630 833f
000001f0: 85ee 7d3f 1413 7b3f 0571 823f 586f 7c3f

net.2.bias f4 [128]
-0.008164377 0.0039984733 0.0023213471 0.0030951728 -0.0071136905 0.005013374 0.0066190963 -0.005178448
0.0025627231 0.00746956 -0.0018806552 -0.004737058 0.0025386203 -0.0037587 0.002949252 0.0014470506
0.0040852814 0.0022668892 -0.0005850183 0.0061268457 0.010686454 -0.0018152007 0.0067240605 -0.0018880977
-0.0025534 0.0048385477 0.006893159 0.004447797 0.005604921 -0.003105414 0.0025592917 -0.0018637031
-0.0074484753 0.0074753235 -0.001090962 -0.0051589482 0.003568419 0.00014067344 0.0036684514 -0.0060834684
0.018324481 -0.009048853 0.00800295 0.0050398526 -0.002423825 -0.004588298 -0.0030439273 0.0010737102
0.004990589 -0.00977484 0.004081366 -0.0040047886 0.0044483165 -0.002964785 0.009197725 0.0018361347
0.0070817634 0.003970016 0.00062265457 -0.00445965 0.0036648416 -0.00016748818 -0.0036540907 -0.0052879485
6.7137276e-05 0.0046720807 0.0053069475 0.003985302 -0.0044387886 -0.004508698 0.003487305 0.0012068279
-0.0018192753 0.0025757814 0.0019512856 -0.010422555 -0.0038133643 -0.006432093 0.000742958 0.0046346374
0.0064684167 -0.0075829057 0.0052710744 0.004223762 0.0041015605 -0.0036987767 0.00275481 0.0019810612
0.01199875 -0.008769505 0.0042597596 0.0031521842 -0.007970956 -0.0009389755 0.00045906092 0.0013462426
-0.009986768 -0.005272321 -0.0053893295 -0.00025057507 -0.0028079944 -0.0029016526 0.0017627163 0.0058560083
-0.003104229 -0.011745811 0.0033259687 0.0017314681 -0.005274538 -0.002472853 0.00442854 0.005027537
-0.0012670103 -0.0060763783 0.0077986885 0.0024020348 0.004446347 -0.009455105 0.0051068207 0.002732302
0.0006856496 -0.0017774572 -0.0038591905 -0.003625706 0.0028756335 0.0107981395 -0.006074449 0.002609759
00000000: e1c3 05bc a005 833b be21 183b 62d8 4a3b
00000010: f619 e9bb 3b47 a43b 01e5 d83b f8af a9bb
00000020: 5cf3 273b 36c3 f43b 5180 f6ba 5339 9bbb
00000030: fb5e 263b 8654 76bb 3d48 413b f6aa bd3a
00000040: d3dd 853b 1790 143b ea5b 19ba b5c3 c83b
00000050: 3d16 2f3c 07ec edba 8255 dc3b 0c7a f7ba
00000060: f156 27bb ae8c 9e3b 02e0 e13b d3be 913b
00000070: 7ca9 b73b 3484 4bbb cab9 273b 8047 f4ba
00000080: 5712 f4bb 8ff3 f43b 9cfe 8eba 650c a9bb
00000090: 23dc 693b bd81 1339 676a 703b d557 c7bb
000000a0: 391d 963c a441 14bc ce1e 033c 5925 a53b
000000b0: 09d9 1ebb 6f59 96bb a07c 47bb bcbb 8c3a
000000c0: 1888 a33b a726 20bc fbbc 853b 9a3a 83bb
000000d0: 2fc3 913b d74c 42bb 0eb2 163c 75aa f03a
000000e0: 230e e83b e816 823b a439 233a 4122 92bb
000000f0: d72d 703b c49f 2fb9 7879 6fbb 8746 adbb
00000100: 0dcc 8c38 4118 993b e7e5 ad3b 2397 823b
00000110: 4273 91bb b3bd 93bb 458b 643b 6d2e 9e3a
00000120: c074 eeba 71ce 283b 48c2 ff3a 5dc3 2abc
00000130: a3e9 79bb 4fc4 d2bb 11c3 423a 28de 973b
00000140: 03f5 d33b 067a f8bb fab8 ac3b 7c67 8a3b
00000150: 6266 863b 2d67 72bb 0b8a 343b b1d4 013b
00000160: 6896 443c f8ad 0fbc 7495 8b3b e094 4e3b
00000170: 9d98 02bc 9425 76ba 1dae f039 6874 b03a
00000180: 8a9f 23bc 6fc3 acbb f998 b0bb 9e5f 83b9
00000190: 5406 38bb a729 3ebb f20a e73a c2e3 bf3b
000001a0: 5270 4bbb 8171 40bc 7ff8 593b 6ef2 e23a
000001b0: 08d6 acbb 970f 22bb 491d 913b 09be a43b
000001c0: d011 a6ba 5b1c c7bb 248c ff3b 756b 1d3b
000001d0: a9b2 913b 96e9 1abc 1e57 a73b 6c10 333b
000001e0: 2abd 333a 91f9 e8ba 79ea 7cbb 419d 6dbb
000001f0: 2075 3c3b aeea 303c 2c0c c7bb 7e08 2b3b

net.3.weight f4 [64, 128]
0.028232755 0.054931097 -0.021631526 -0.030813647 -0.00899527 -0.04069896 -0.0056391126 0.044653468
-0.064847596 -0.05478229 0.063324615 0.009974132 0.05392371 0.00032187335 -0.045578696 -0.012673706
-0.0042191166 0.059131846 -0.023885245 0.01352166 -0.0789405 0.03472909 0.06458129 -0.016116153
0.05640996 0.03478021 -0.011268007 -0.049235385 -0.08203502 -0.05028942 -0.05151067 -0.09331387
-0.061514873 0.062427156 -0.008913157 0.02715968 0.0005445322 0.046194967 -0.07091711 0.004610162
0.06800771 -0.073373795 0.029183859 -0.05186207 -0.07112342 -0.06846515 0.031590987 -0.009170588
0.031530652 -0.08206147 -0.043123443 0.003735892 0.024604725 0.059862636 0.07491784 -0.082064025
-0.050535277 -0.014940227 -0.0721688 0.0072289505 -0.07955209 -0.04868463 -0.012083574 0.025424337
-0.061502606 -0.07124565 -0.021321665 -0.010312001 -0.025599826 -0.09953019 -0.04002295 -0.07058382
0.033571456 0.0006264304 -0.029405782 -0.0635116 -0.030156655 -0.080468036 0.045191403 0.037992742
-0.04728964 0.020233857 -0.01447136 0.05178692 -0.082386844 0.02550531 -0.014571337 0.021730823
-0.007816324 -0.1145835 0.04329568 0.013477441 -0.05058031 0.02443348 -0.095257364 0.063451275
-0.0547757 0.00936143 -0.078581095 -0.008942075 0.026159568 0.011904947 -0.0046888096 0.0014145148
0.013872136 -0.096867435 -0.04487308 -0.02455547 -0.043031912 -0.024189932 0.015295127 0.04524656
-0.018559707 0.031465318 -0.06313144 -0.0538862 0.048406836 -0.052962873 0.10955724 0.046581455
0.069888085 -0.020608831 -0.044206772 0.04134505 -0.032574702 0.032969456 0.06923397 0.0672472
0.04433882 -0.023479993 -0.016405135 -0.08116614 0.06148711 0.06343525 -0.050828066 -0.07644005
0.09760125 -0.08492889 -0.024864532 -0.00806372 0.0084126275 -0.078243315 -0.0068130638 -0.0503532
-0.0042891856 -0.032313805 0.07717168 -0.008810161 0.020224996 -0.040046062 -0.081311636 0.02678885
-0.025582984 -0.09716914 0.07341233 0.04782027 -0.056238763 -0.08974104 0.09403427 -0.084504135
-0.03764631 -0.0023143983 -0.034579232 -0.057289198 0.0954484 0.0042846105 0.032718286 -0.08423092
0.0015215984 -0.03872829 0.053192355 0.044471905 -0.061293207 -0.08726075 0.073700115 0.022652095
0.04080898 -0.011655058 0.035140313 -0.05035435 0.060734786 -0.025379052 0.04355543 0.06777448
0.019182567 0.06480509 -0.0071690767 0.058051568 0.051100556 -0.053891048 0.045487877 0.027519736
0.02949623 0.03831095 -0.049820982 0.046803135 -0.069481485 -0.013453229 0.035983764 0.034940816
-0.046204153 0.093366705 0.09318411 -0.02483715 0.008146207 0.019305654 0.014305696 0.044894267
-0.09142248 0.025066126 0.07299504 -0.07065632 0.0641547 0.08514441 0.036716275 0.09169062
0.059851713 -0.051503804 3.1043728e-05 -0.03876161 0.054565154 0.018900543 -0.01742052 0.08240186
-0.05487431 -0.022582648 -0.048084285 -0.051904 -0.062572 0.033292685 -0.01612839 0.01922222
0.0589481 0.080710456 -0.06652425 0.024861878 -0.027640618 0.06461049 0.06738792 0.034705237
-0.012317163 0.0759989 -0.027553294 0.092209384 -0.081403784 -0.00044913308 -0.050367687 0.08848253
0.061293453 0.028617412 0.051876333 -0.07588753 0.080950394 -0.08418019 0.06851246 -0.07234098
00000000: 6148 e73c 6eff 603d 9934 b1bc e76c fcbc
00000010: e660 13bc f4b3 26bd 4ec8 b8bb 8ee6 363d
00000020: d1ce 84bd 6563 60bd 56b0 813d 8b6a 233c
00000030: 1cdf 5c3d 1cc1 a839 bab0 3abd 60a5 4fbc
00000040: 8440 8abb 3c34 723d fdaa c3bc f489 5d3c
00000050: 8fab a1bd 1740 0e3d 3243 843d 0606 84bc
00000060: 210e 673d b275 0e3d 729d 38bc 0bab 49bd
00000070: fa01 a8bd 47fc 4dbd dafc 52bd 581b bfbd
00000080: 05f7 7bbd 9eb3 7f3d 7d08 12bc fa7d de3c
00000090: f0be 0e3a ef36 3d3d fd3c 91bd d810 973b
000000a0: a047 8b3d 0045 96bd fd12 ef3c 526d 54bd
000000b0: 28a9 91bd 7537 8cbd 8d65 013d 3c40 16bc
000000c0: 4926 013d d80f a8bd 35a2 30bd ded5 743b
000000d0: d98f c93c 8632 753d 866e 993d 2f11 a8bd
000000e0: 14fe 4ebd dbc7 74bc 3ccd 93bd d5e0 ec3b
000000f0: 35ec a2bd 8969 47bd 2ffa 45bc b346 d03c
00000100: 28ea 7bbd 3de9 91bd c6aa aebc abf3 28bc
00000110: bab6 d1bc 7cd6 cbbd 1bef 23bd 408e 90bd
00000120: 3982 093d 0837 243a 65e4 f0bc 5f12 82bd
00000130: 170b f7bc 6dcc a4bd 9f1a 393d 479e 1b3d
00000140: c8b2 41bd 79c1 a53c 4819 6dbc 851e 543d
00000150: 6fba a8bd 83f0 d03c 9ebc 6ebc d704 b23c
00000160: 0a10 00bc c1aa eabd d056 313d 7cd0 5c3c
00000170: 4d2d 4fbd b928 c83c 4b16 c3bd bef2 813d
00000180: 7c5c 60bd af60 193c 20ef a0bd c881 12bc
00000190: 974c d63c f80c 433c 96a4 99bb 3e67 b93a
000001a0: f547 633c 6f62 c6bd d6cc 37bd 8e28 c9bc
000001b0: 3b42 30bd f729 c6bc 6a98 7a3c 7554 393d
000001c0: 870a 98bc c7e1 003d 0e4b 81bd c7b7 5cbd
000001d0: 3f46 463d 99ef 58bd 8c5f e03d 32cc 3e3d
000001e0: 7c21 8f3d dad3 a8bc 2912 35bd 6d59 293d
000001f0: 0d6d 05bd fb0a 073d 8aca 8d3d e6b8 893d
00000200: 9f9c 353d 1d59 c0bc 1064 86bc 6f3a a6bd
00000210: e8d9 7b3d 57ea 813d 1731 50bd 9a8c 9cbd
00000220: 2ae3 c73d 33ef adbd b4b0 cbbc b11d 04bc
00000230: 1ed5 093c 083e a0bd 1f40 dfbb 283f 4ebd
00000240: 4c8c 8cbb 7b5b 04bd 300c 9e3d 7e58 10bc
00000250: e4ae a53c 5707 24bd b786 a6bd 4a74 db3c
00000260: 6893 d1bc 9d00 c7bd 3459 963d 30df 433d
00000270: 9e5a 66bd 26ca b7bd 0a95 c03d 8110 adbd
00000280: 0433 1abd 29ad 17bb f4a2 0dbd 14a8 6abd
00000290: 737a c33d eb65 8c3b 9c03 063d 4381 acbd
000002a0: 5f70 c73a 8ea1 1ebd 3ae0 593d 2c28 363d
000002b0: 960e 7bbd c4b5 b2bd 16f0 963d e390 b93c
000002c0: 5127 273d dbf4 3ebc 4aef 0f3d 5d40 4ebd
000002d0: 0ac5 783d bbe7 cfbc 2e67 323d 59cd 8a3d
000002e0: c224 9d3c 88b8 843d 93ea eabb 7bc7 6d3d
000002f0: d14e 513d dcbc 5cbd 7f51 3a3d 1271 e13c
00000300: 14a2 f13c f1eb 1c3d 1611 4cbd a5b4 3f3d
00000310: 4f4c 8ebd ef6a 5cbc b663 133d 1a1e 0f3d
00000320: 9140 3dbd 0b37 bf3d 50d7 be3d 4777 cbbc
00000330: ab77 053c e426 9e3c 7062 6a3c 0de3 373d
00000340: b63b bbbd 7a57 cd3c 6c7e 953d 43b4 90bd
00000350: 8a63 833d 3160 ae3d ce63 163d 4bc8 bb3d
00000360: 1227 753d a7f5 52bd f334 0238 7ec4 1ebd
00000370: b67f 5f3d 50d5 9a3c 7ab5 8ebc 4ec2 a83d
00000380: e2c3 60bd 3fff b8bc 07f4 44bd 4a99 54bd
00000390: c025 80bd e95d 083d af1f 84bc eb77 9d3c
000003a0: 9073 713d 864b a53d de3d 88bd 23ab cb3c
000003b0: 946e e2bc 8152 843d ae02 8a3d 1427 0e3d
000003c0: edcd 49bc 50a5 9b3d 72b7 e1bc 46d8 bc3d
000003d0: 07b7 a6bd 9f79 ebb9 594e 4ebd 5436 b53d
000003e0: d80e 7b3d 106f ea3c 477c 543d ec6a 9bbd
000003f0: 52c9 a53d aa66 acbd 4350 8c3d 8227 94bd

net.3.bias f4 [64]
0.030937929 0.0352163 0.07852193 -0.04944185 0.059646588 -0.03467677 -0.032786377 -4.3220302e-06
0.07435144 -0.06882021 0.01886575 0.039607428 -0.02812696 0.048129603 -0.07844147 0.05833562
0.06628106 0.087875284 -0.015748093 0.018630015 0.07761296 0.037764233 -0.058620032 -0.049084328
0.001460301 -0.04412532 0.0932293 0.059057973 0.0054783574 -0.017508913 0.09718587 -0.09864536
-0.013941755 0.022721028 -0.013225602 0.08259782 -0.08107281 -0.012373603 0.00053977966 -0.030129686
-0.04924742 0.056380503 -0.06858721 -0.06402292 0.05080881 0.044740196 -0.013620875 -0.04257316
-0.051341813 0.07842538 -0.044005174 0.052687787 0.049520664 -0.08486586 0.04212549 -0.021734357
0.0852601 -0.04506343 0.0139132 -0.07815509 -0.029619515 0.061216287 -0.06311096 -0.08899405
00000000: 8a71 fd3c f83e 103d 1bd0 a03d 8a83 4abd
00000010: fb4f 743d 3b09 0ebd 024b 06bd f505 91b6
00000020: 9145 983d 9cf1 8cbd 588c 9a3c 663b 223d
00000030: 836a e6bc 8c23 453d eca5 a0bd 55f1 6e3d
00000040: 5dbe 873d f5f7 b33d 2502 81bc f99d 983c
00000050: 8bf3 9e3d abae 1a3d 8f1b 70bd a60c 49bd
00000060: 9267 bf3a c0bc 34bd 01ef be3d c6e6 713d
00000070: cb83 b33b da6e 8fbc 6309 c73d 9406 cabd
00000080: f56b 64bc 7321 ba3c 32b0 58bc 0c29 a93d
00000090: 8009 a6bd a7ba 4abc 0080 0d3a 88d2 f6bc
000000a0: aab7 49bd 3eef 663d 7377 8cbd 731e 83bd
000000b0: e61c 503d 7f41 373d 172a 5fbc 3261 2ebd
000000c0: cb4b 52bd 7c9d a03d c53e 34bd 26cf 573d
000000d0: 2ed6 4a3d 27ce adbd c78b 2c3d 400c b2bc
000000e0: d99c ae3d 6e94 38bd 31f4 633c c70f a0bd
000000f0: a0a4 f2bc eebd 7a3d 5240 81bd 8342 b6bd

net.5.weight f4 [64]
0.9969047 1.0371976 0.9932052 1.0653367 1.0246668 0.999711 1.0732635 1.0503587
1.0156024 1.0221083 1.1079195 1.0872066 1.0274205 1.0786204 1.0234646 1.0310955
1.0115556 1.040771 1.0301248 1.0094385 1.0203658 1.0308623 1.0306813 1.0719876
1.0547274 1.0355881 1.0938781 1.0420508 1.0484926 1.0514879 1.125738 1.00893
1.0760475 1.0175383 1.0770226 1.0666513 1.0157799 1.0157814 1.0515598 1.1156187
1.0491732 1.0144594 1.0668975 1.0182923 1.0432739 1.0678251 1.041053 1.0553025
1.0808862 1.029064 1.0102175 1.0484376 1.0539383 1.0707144 1.0289085 1.0227628
1.0033336 1.0223176 1.0298233 1.0862674 1.020252 1.0531923 1.0177585 1.0355518
00000000: 2535 7f3f e4c2 843f b242 7e3f f45c 883f
00000010: 4828 833f 0fed 7f3f b360 893f 2772 863f
00000020: 42ff 813f 72d4 823f 4ed0 8d3f 9629 8b3f
00000030: 8482 833f 3c10 8a3f e300 833f f0fa 833f
00000040: a77a 813f fc37 853f 21db 833f 4835 813f
00000050: 599b 823f 4cf3 833f 5ded 833f e436 893f
00000060: 4f01 873f 278e 843f 3304 8c3f ec61 853f
00000070: 0135 863f 2897 863f 2f18 903f 9e24 813f
00000080: edbb 893f b23e 823f e0db 893f 0888 883f
00000090: 1305 823f 2005 823f 8399 863f 98cc 8e3f
000000a0: 4f4b 863f ced9 813f 1990 883f 6757 823f
000000b0: 008a 853f 7eae 883f 3a41 853f 2714 873f
000000c0: 7b5a 8a3f 5fb8 833f cf4e 813f 3433 863f
000000d0: 73e7 863f 2b0d 893f 46b3 833f e4e9 823f
000000e0: 3c6d 803f 4edb 823f 40d1 833f cf0a 8b3f
000000f0: 9e97 823f 01cf 863f e945 823f f68c 843f

net.5.bias f4 [64]
0.006709314 0.00764228 -0.0064403196 -0.008552123 -0.0078061465 -0.007353622 0.00860087 -0.007658642
-0.007445579 0.0076869163 0.009993715 -0.014822417 -0.007662739 -0.008274051 -0.007654081 0.007621902
-0.0074071516 0.0076903636 -0.008675332 0.007491507 0.0075236587 0.00764535 0.017565992 -0.008593926
0.008223738 -0.008750568 0.010437541 0.0088494625 0.0077896155 0.007907331 -0.040760238 -0.0080073895
-0.007949341 -0.009611594 -0.03561865 0.008148153 -0.007839408 0.008881239 0.008295391 -0.015497582
0.007864453 -0.008292173 -0.009112679 0.0073271818 0.0076876087 0.009437479 -0.00909571 0.008422922
0.008900925 -0.0075845164 -0.007248287 -0.007666347 -0.00822134 -0.008122227 -0.0076585747 0.0075390902
0.007157615 0.0073761893 -0.0076225535 -0.008648457 0.0076232357 0.008092423 -0.007334121 -0.0078407945
00000000: ced9 db3b 176c fa3b 5109 d3bb 341e 0cbc
00000010: b4ca ffbb a7f6 f0bb aaea 0c3c 58f5 fabb
00000020: 0bfa f3bb 87e2 fb3b aebc 233c b9d9 72bc
00000030: b717 fbbb e38f 07bc 16cf fabb 26c1 f93b
00000040: b1b7 f2bb 72ff fb3b fb22 0ebc 517b f53b
00000050: 0689 f63b d885 fa3b 8ee6 8f3c 8acd 0cbc
00000060: dbbc 063c 8b5e 0fbc 3802 2b3c 56fd 103c
00000070: 0840 ff3b c08d 013c 35f4 26bd 6d31 03bc
00000080: f43d 02bc f279 1dbc dde4 11bd d57f 053c
00000090: dc70 00bc 9e82 113c 64e9 073c 92e9 7dbc
000000a0: e8d9 003c e5db 07bc 594d 15bc db18 f03b
000000b0: 56e8 fb3b a89f 1a3c 2c06 15bc 4c00 0a3c
000000c0: 2fd5 113c 8987 f8bb 0a83 edbb fb35 fbbb
000000d0: cdb2 06bc 1713 05bc c8f4 fabb 790a f73b
000000e0: 6d8a ea3b f6b3 f13b 9dc6 f9bb 42b2 0dbc
000000f0: 56cc f93b 1596 043c 1153 f0bb ad76 00bc

net.6.weight f4 [1, 64]
-0.024063151 -0.15633056 0.024581736 0.081876814 0.03198626 0.009086029 -0.15010372 0.168891
0.094902486 -0.06636007 -0.13376516 0.06872641 0.095701076 0.17034428 0.07207491 -0.13997233
0.11118674 -0.1448551 0.044243935 -0.039288737 -0.0876078 -0.1259641 -0.01605455 0.1115529
-0.13964385 0.049201507 -0.09969418 -0.072696425 -0.14371336 -0.1498632 0.042134054 0.027572718
0.18971959 0.02042588 0.016963711 -0.17316297 0.03378118 -0.027165242 -0.109973125 0.07716995
-0.16522741 0.032985322 0.114368804 -0.119668365 -0.1631299 -0.08151228 0.07174848 -0.11028101
-0.12354571 0.13401717 0.0819019 0.15081841 0.13681419 0.17761753 0.13042921 -0.11689485
-0.08967798 -0.1423961 0.09137995 0.1270181 -0.059484713 -0.14735718 0.13928905 0.13396686
00000000: 1620 c5bc 1e15 20be a35f c93c 08af a73d
00000010: 0604 033d 91dd 143c cab4 19be c3f1 2c3e
00000020: 3c5c c23d cae7 87bd bcf9 08be 6fc0 8c3d
00000030: edfe c33d bb6e 2e3e 039c 933d e854 0fbe
00000040: e0b5 e33d e554 14be 2139 353d 3aed 20bd
00000050: b86b b3bd bcfc 00be d584 83bc d975 e43d
00000060: ccfe 0ebe 8587 493d 762c ccbd dde1 94bd
00000070: 9829 13be bd75 19be c294 2c3d 2ee0 e13c
00000080: da45 423e 2d54 a73c 7bf7 8a3c a251 31be
00000090: 225e 0a3d a489 debc 9739 e1bd 470b 9e3d
000000a0: 6031 29be 9e1b 073d 313a ea3d b014 f5bd
000000b0: 860b 27be e9ef a6bd def0 923d 03db e1bd
000000c0: 8905 fdbd cc3b 093e 2fbc a73d 2470 1a3e
000000d0: 0519 0c3e 5fe1 353e 3c8f 053e 9166 efbd
000000e0: 17a9 b7bd 49d0 11be 6925 bb3d 0811 023e
000000f0: 3ea6 73bd cde4 16be caa1 0e3e 9c2e 093e
